…
   "source": [
    "# Loading Desenet model\n",
    "densenet = models.densenet161(pretrained=True)"
   ]
  },
  {
   "cell_type": "code",
   "execution_count": 7,
   "metadata": {},
   "outputs": [
    {
     "name": "stderr",
     "output_type": "stream",
     "text": [
      "Downloading: \"https://download.pytorch.org/models/vgg16-397923af.pth\" to /root/.torch/models/vgg16-397923af.pth\n",
      "100%|██████████| 553433881/553433881 [00:05<00:00, 94943857.76it/s] \n"
     ]
    },
    {
     "data": {
      "text/plain": [
       "VGG(\n",
       "  (features): Sequential(\n",
       "    (0): Conv2d(3, 64, kernel_size=(3, 3), stride=(1, 1), padding=(1, 1))\n",
       "    (1): ReLU(inplace)\n",
       "    (2): Conv2d(64, 64, kernel_size=(3, 3), stride=(1, 1), padding=(1, 1))\n",
       "    (3): ReLU(inplace)\n",
       "    (4): MaxPool2d(kernel_size=2, stride=2, padding=0, dilation=1, ceil_mode=False)\n",
       "    (5): Conv2d(64, 128, kernel_size=(3, 3), stride=(1, 1), padding=(1, 1))\n",
       "    (6): ReLU(inplace)\n",
       "    (7): Conv2d(128, 128, kernel_size=(3, 3), stride=(1, 1), padding=(1, 1))\n",
       "    (8): ReLU(inplace)\n",
       "    (9): MaxPool2d(kernel_size=2, stride=2, padding=0, dilation=1, ceil_mode=False)\n",
       "    (10): Conv2d(128, 256, kernel_size=(3, 3), stride=(1, 1), padding=(1, 1))\n",
       "    (11): ReLU(inplace)\n",
       "    (12): Conv2d(256, 256, kernel_size=(3, 3), stride=(1, 1), padding=(1, 1))\n",
       "    (13): ReLU(inplace)\n",
       "    (14): Conv2d(256, 256, kernel_size=(3, 3), stride=(1, 1), padding=(1, 1))\n",
       "    (15): ReLU(inplace)\n",
       "    (16): MaxPool2d(kernel_size=2, stride=2, padding=0, dilation=1, ceil_mode=False)\n",
       "    (17): Conv2d(256, 512, kernel_size=(3, 3), stride=(1, 1), padding=(1, 1))\n",
       "    (18): ReLU(inplace)\n",
       "    (19): Conv2d(512, 512, kernel_size=(3, 3), stride=(1, 1), padding=(1, 1))\n",
       "    (20): ReLU(inplace)\n",
       "    (21): Conv2d(512, 512, kernel_size=(3, 3), stride=(1, 1), padding=(1, 1))\n",
       "    (22): ReLU(inplace)\n",
       "    (23): MaxPool2d(kernel_size=2, stride=2, padding=0, dilation=1, ceil_mode=False)\n",
       "    (24): Conv2d(512, 512, kernel_size=(3, 3), stride=(1, 1), padding=(1, 1))\n",
       "    (25): ReLU(inplace)\n",
       "    (26): Conv2d(512, 512, kernel_size=(3, 3), stride=(1, 1), padding=(1, 1))\n",
       "    (27): ReLU(inplace)\n",
       "    (28): Conv2d(512, 512, kernel_size=(3, 3), stride=(1, 1), padding=(1, 1))\n",
       "    (29): ReLU(inplace)\n",
       "    (30): MaxPool2d(kernel_size=2, stride=2, padding=0, dilation=1, ceil_mode=False)\n",
       "  )\n",
       "  (classifier): Sequential(\n",
       "    (0): Linear(in_features=25088, out_features=4096, bias=True)\n",
       "    (1): ReLU(inplace)\n",
       "    (2): Dropout(p=0.5)\n",
       "    (3): Linear(in_features=4096, out_features=4096, bias=True)\n",
       "    (4): ReLU(inplace)\n",
       "    (5): Dropout(p=0.5)\n",
       "    (6): Linear(in_features=4096, out_features=1000, bias=True)\n",
       "  )\n",
       ")"
      ]
     },
     "execution_count": 7,
     "metadata": {},
     "output_type": "execute_result"
    }
   ],
   "source": [
    "# TODO: Build and train your network\n",
    "model = models.vgg16(pretrained=True)\n",
    "model"
   ]
  },
  {
   "cell_type": "markdown",
   "metadata": {},
   "source": [
    "###### The model has output for 25088 features. For my model I need to predict 102 classes. Therefore this will be changed accordingly."
…
    "        param.requires_grad = False #turning off tuning of the model\n",
    "    model2.classifier= checkpoint['classifier']\n",
    "    model2.class_to_idx = checkpoint['mapping']\n",
    "    model2.optimizer_dict = checkpoint['Optimizer_dict']\n",
    "    model2.load_state_dict(checkpoint['state_dict'])\n",
    "    lr = checkpoint['lr']\n",
    "    epoch=checkpoint['epoch']\n",
    "    \n",
    "    return model2"
   ]
  },
  {
   "cell_type": "code",
   "execution_count": 15,
   "metadata": {},
   "outputs": [
    {
     "data": {
      "text/plain": [
       "VGG(\n",
       "  (features): Sequential(\n",
       "    (0): Conv2d(3, 64, kernel_size=(3, 3), stride=(1, 1), padding=(1, 1))\n",
       "    (1): ReLU(inplace)\n",
       "    (2): Conv2d(64, 64, kernel_size=(3, 3), stride=(1, 1), padding=(1, 1))\n",
       "    (3): ReLU(inplace)\n",
       "    (4): MaxPool2d(kernel_size=2, stride=2, padding=0, dilation=1, ceil_mode=False)\n",
       "    (5): Conv2d(64, 128, kernel_size=(3, 3), stride=(1, 1), padding=(1, 1))\n",
       "    (6): ReLU(inplace)\n",
       "    (7): Conv2d(128, 128, kernel_size=(3, 3), stride=(1, 1), padding=(1, 1))\n",
       "    (8): ReLU(inplace)\n",
       "    (9): MaxPool2d(kernel_size=2, stride=2, padding=0, dilation=1, ceil_mode=False)\n",
       "    (10): Conv2d(128, 256, kernel_size=(3, 3), stride=(1, 1), padding=(1, 1))\n",
       "    (11): ReLU(inplace)\n",
       "    (12): Conv2d(256, 256, kernel_size=(3, 3), stride=(1, 1), padding=(1, 1))\n",
       "    (13): ReLU(inplace)\n",
       "    (14): Conv2d(256, 256, kernel_size=(3, 3), stride=(1, 1), padding=(1, 1))\n",
       "    (15): ReLU(inplace)\n",
       "    (16): MaxPool2d(kernel_size=2, stride=2, padding=0, dilation=1, ceil_mode=False)\n",
       "    (17): Conv2d(256, 512, kernel_size=(3, 3), stride=(1, 1), padding=(1, 1))\n",
       "    (18): ReLU(inplace)\n",
       "    (19): Conv2d(512, 512, kernel_size=(3, 3), stride=(1, 1), padding=(1, 1))\n",
       "    (20): ReLU(inplace)\n",
       "    (21): Conv2d(512, 512, kernel_size=(3, 3), stride=(1, 1), padding=(1, 1))\n",
       "    (22): ReLU(inplace)\n",
       "    (23): MaxPool2d(kernel_size=2, stride=2, padding=0, dilation=1, ceil_mode=False)\n",
       "    (24): Conv2d(512, 512, kernel_size=(3, 3), stride=(1, 1), padding=(1, 1))\n",
       "    (25): ReLU(inplace)\n",
       "    (26): Conv2d(512, 512, kernel_size=(3, 3), stride=(1, 1), padding=(1, 1))\n",
       "    (27): ReLU(inplace)\n",
       "    (28): Conv2d(512, 512, kernel_size=(3, 3), stride=(1, 1), padding=(1, 1))\n",
       "    (29): ReLU(inplace)\n",
       "    (30): MaxPool2d(kernel_size=2, stride=2, padding=0, dilation=1, ceil_mode=False)\n",
       "  )\n",
       "  (classifier): Sequential(\n",
       "    (fc1): Linear(in_features=25088, out_features=500, bias=True)\n",
       "    (relu): ReLU()\n",
       "    (dropout): Dropout(p=0.2)\n",
       "    (fc2): Linear(in_features=500, out_features=200, bias=True)\n",
       "    (fc3): Linear(in_features=200, out_features=102, bias=True)\n",
       "    (output): LogSoftmax()\n",
       "  )\n",
       ")"
      ]
     },
     "execution_count": 15,
     "metadata": {},
     "output_type": "execute_result"
    }
   ],
   "source": [
    "#Now let's test if we did everything in correct way.\n",
    "\n",
    "model_verify = loading_checkpoint('project_checkpoint.pth')\n",
    "model_verify"
…
